# Ultralytics YOLO 🚀, AGPL-3.0 license
# YOLOv8 object detection model with P3-P5 outputs. For Usage examples see https://docs.ultralytics.com/tasks/detect

# Parameters
ch: 6
nc: 6  # number of classes
scales: # model compound scaling constants, i.e. 'model=yolov8n.yaml' will call yolov8.yaml with scale 'n'
  # [depth, width, max_channels]
  # n: [0.33, 0.25, 1024]  # YOLOv8n summary: 225 layers,  3157200 parameters,  3157184 gradients,   8.9 GFLOPs
   s: [0.33, 0.50, 1024]  # YOLOv8s summary: 225 layers, 11166560 parameters, 11166544 gradients,  28.8 GFLOPs
  # m: [0.67, 0.75, 768]   # YOLOv8m summary: 295 layers, 25902640 parameters, 25902624 gradients,  79.3 GFLOPs
  # l: [1.00, 1.00, 512]   # YOLOv8l summary: 365 layers, 43691520 parameters, 43691504 gradients, 165.7 GFLOPs
   #x: [1.00, 1.25, 512]   # YOLOv8x summary: 365 layers, 68229648 parameters, 68229632 gradients, 258.5 GFLOPs

# YOLOv8.0n backbone
backbone:
  # [from, repeats, module, args]
  - [-1, 1, IN, []]  # 0
  - [-1, 1, Multiin, [1]]  # 1
  - [-2, 1, Multiin, [2]]  # 2

  # two stream backbone
  # Visible branch
  - [1, 1, Conv, [32, 3, 2]]  # 3-P1/2
  - [-1, 1, Conv, [64, 3, 2]]  # 4-P2/4
  - [-1, 3, C2f, [64, True]]
  # Infrared branch
  - [2, 1, Conv, [ 32, 3, 2 ] ]  # 6-P1/2
  - [-1, 1, Conv, [ 64, 3, 2 ] ]  # 7-P2/4
  - [-1, 3, C2f, [ 64, True ] ]

  - [5, 1, Conv, [128, 3, 2]]  # 9-P3/8-visible
  - [8, 1, Conv, [128, 3, 2]]  # 10-P3/8-infrared


  - [-2, 6, C2f, [128, True]]      # 11-P3/8 visible
  - [-2, 6, C2f, [128, True]]      # 12-P3/8 infrared
  - [-2, 1, Conv, [256, 3, 2]]     # 13-P4/16 visible
  - [-2, 1, Conv, [256, 3, 2]]     # 14-P4/16 infrared


  - [-2, 6, C2f, [256, True]]      # 15-P4/16 visible
  - [-2, 6, C2f, [256, True]]      # 16-P4/16 infrared
  - [-2, 1, Conv, [512, 3, 2]]     # 17-P5/32 visible
  - [-2, 1, Conv, [512, 3, 2]]     # 18-P5/32 infrared


  - [-2, 3, C2f, [512, True]]      # 19-P5/32 visible
  - [-2, 3, C2f, [512, True]]      # 20-P5/32 infrared
  - [-2, 1, SPPF, [512, 5]]     # 21-P5/32 visible
  - [-2, 1, SPPF, [512, 5]]     # 22-P5/32 infrared

###第一个Fusion
  - [11, 1, Base, [128] ]  # 23
  - [12, 1, Base, [128] ]  # 24
  - [11, 1, Detail, [128] ]  # 25
  - [12, 1, Detail, [128] ]  # 26

  - [ [23,24,25,26], 1, EnhanceFusion, [ ] ]  # 27
###第二个Fusion
  - [ 15, 1, Base, [256] ]  # 28
  - [ 16, 1, Base, [256] ]  # 29
  - [ 15, 1, Detail, [256] ]  # 30
  - [ 16, 1, Detail, [256] ]  # 31
  - [ [28,29,30,31], 1, EnhanceFusion, [ ] ]  # 32

##第三个fusion
  - [ 21, 1, Base, [512] ]  # 33
  - [ 22, 1, Base, [512] ]  # 34
  - [ 21, 1, Detail, [512] ]  # 35
  - [ 22, 1, Detail, [512] ]  # 36
  - [ [ 33,34,35,36 ], 1, EnhanceFusion, [ ] ]  # 37


 # YOLOv8.0n head
head:
  - [-1, 1, nn.Upsample, [None, 2, 'nearest']]    #
  - [[-1, 32], 1, Concat, [1]]  # cat backbone P4
  - [-1, 3, C2f, [512]]  # 28  #40

  - [-1, 1, nn.Upsample, [None, 2, 'nearest']]
  - [[-1, 27], 1, Concat, [1]]  # cat backbone P3
  - [-1, 3, C2f, [256]]  # 31 (P3/8-small)  #43

  - [-1, 1, Conv, [256, 3, 2]]
  - [[-1, 40], 1, Concat, [1]]  # cat head P4
  - [-1, 3, C2f, [512]]  # 34 (P4/16-medium)  #46

  - [-1, 1, Conv, [512, 3, 2]]
  - [[-1, 37], 1, Concat, [1]]  # cat head P5
  - [-1, 3, C2f, [1024]]  # 37 (P5/32-large) #49

  - [[43, 46, 49], 1, Detect, [nc]]  # Detect(P3, P4, P5)
